models/Cora/nn/unitTests/vnn_verivital_maxpool.onnx (onnx, 47361 bytes, 4 tensors)

conv1.0.bias f4 [32]
000000 5a 8e be bd 30 8d c2 bc b9 b4 d0 bc b9 53 55 be
       -0.09304495 -0.023748964 -0.0254768 -0.20832719
000010 23 45 76 bf bf 55 6e be 12 d6 b2 be 6f d2 28 bd
       -0.96199244 -0.23274897 -0.34928948 -0.04121631
000020 90 b6 1f bf 6c 14 a0 3c 59 50 9b bf 49 43 6a 3d
       -0.62387943 0.019540988 -1.2133895 0.057193074
000030 77 10 61 bd 02 b9 ba bd bf dd e7 be 65 3a 3b bf
       -0.054947343 -0.09117319 -0.45286366 -0.7313598
000040 66 48 0d bf f6 92 8b 3e 40 4c 17 3e 26 fa bf bf
       -0.55188596 0.2726056 0.14775181 -1.4998214
000050 71 8f 1f be 96 44 d0 be 7b e6 9d bc 0f 05 80 be
       -0.15582062 -0.40677327 -0.01927494 -0.2500386
000060 a6 04 92 bf 72 9c 9c be 1e 58 ca be b3 13 ae be
       -1.1407669 -0.30588108 -0.39520353 -0.33999404
000070 47 7c 4e bf 4a 2a 09 bf 7a 06 26 bc cd 84 e8 bd
       -0.8065838 -0.53580153 -0.01013338 -0.11353455

conv1.0.weight f4 [32, 1, 2, 2]
000000 09 7b 82 3d 4d a9 08 c0 5e 18 1a c0 16 6c c6 3f
       0.06371123 -2.1353333 -2.4077373 1.5501735
000010 35 44 aa bf 54 b2 19 bf 45 28 aa 3e e3 ca fa bf
       -1.3302065 -0.6003773 0.33233848 -1.9593166
000020 fe 85 e4 bf cb 4a b2 bf d0 8d d4 3f e5 2c e5 bf
       -1.7853391 -1.3929075 1.6605778 -1.7904326
000030 ba e4 fe bd 3b 58 e4 bc 29 c2 54 3e 13 4c 3b be
       -0.1244597 -0.027874103 0.20777191 -0.18290739
000040 55 d6 8f bf b8 20 7b 3f 60 40 52 3f e7 ac 64 3e
       -1.1237284 0.980968 0.8212948 0.22331582
000050 bc 6e 80 c0 15 8f 8a 3e b5 e5 7b c0 59 36 28 3f
       -4.0135174 0.27062288 -3.9358952 0.6570793
000060 60 7f 42 3e f8 25 05 be f4 45 23 be 80 61 3c 3e
       0.18993902 -0.13002765 -0.15944654 0.18396568
000070 04 09 12 bf 78 ee ac be 74 96 3e be ca 92 9a be
       -0.57045007 -0.33775687 -0.18612081 -0.30190116
000080 bf 72 a3 bc 8c c2 1d 3f f8 12 03 3f 70 46 19 be
       -0.019952176 0.6162498 0.5120082 -0.14968276
000090 56 14 1d c0 c4 39 99 3f 32 09 55 c0 12 56 18 bf
       -2.4543662 1.1970754 -3.3286862 -0.5950633
0000a0 70 e1 b0 3f 16 2b 9c bd 22 c2 c6 bf 5c f7 b6 3f
       1.3818798 -0.076254055 -1.5527995 1.4294238
0000b0 e8 f1 a4 bf 0a d2 11 c0 e7 0b 8b be 54 18 89 bf
       -1.2886324 -2.2784448 -0.27157518 -1.0710549
0000c0 bd 3f 6f bf 78 33 d4 3f 9c 31 41 c0 f9 e7 1b c0
       -0.9345663 1.6578207 -3.018653 -2.4360335
0000d0 af e1 39 3e ec 49 61 c0 50 df 3f 3f 61 8c 77 c0
       0.18152498 -3.5201368 0.7495012 -3.867943
0000e0 2c d9 6d bf 46 a7 49 3f a0 0e 57 bf bb c4 52 3f
       -0.92909503 0.78770864 -0.8400669 0.82331437
0000f0 24 20 26 bf 62 59 5f 3f 27 4d 67 3f 4d 2d ad be
       -0.6489279 0.8724576 0.903521 -0.33823624
000100 d5 36 34 3f f1 c5 d0 bf f8 e6 85 3f 2b 2c 22 bf
       0.7039617 -1.6310407 1.0461111 -0.63348645
000110 7d 37 89 bf 9b 72 fd bf 1c ee 58 c0 65 d5 49 c0
       -1.0720059 -1.98006 -3.389533 -3.1536496
000120 07 5d 98 c0 59 29 86 c0 c6 ef 76 c0 ca 17 51 c0
       -4.761356 -4.1925473 -3.8583846 -3.267077
000130 71 f5 c7 3f 68 99 d1 bf 0c e5 aa ba 8e a4 bc 3f
       1.5621778 -1.6374941 -0.0013038232 1.4737718
000140 75 4c 74 c0 ef 42 b8 3e 88 cb 23 3f d7 c7 ca bf
       -3.8171666 0.35988566 0.6398244 -1.5842236
000150 2f 3e 38 bf 21 94 c9 be 58 29 eb 3e cd 0a 38 3f
       -0.71969885 -0.39370826 0.4592998 0.7189148
000160 e0 29 bf 3f c8 7d 09 c0 37 59 d0 bf b0 0e bd bf
       1.4934654 -2.148302 -1.6277226 -1.4770107
000170 b6 79 78 c0 8c f9 ae bf 4f f4 83 3e 50 8a 27 3f
       -3.8824286 -1.3669906 0.2577233 0.65445423
000180 9c b8 d5 3e f9 2b 5d 3e 52 8c ed 3e 61 36 cc 3e
       0.41742408 0.21598805 0.46396118 0.39885238
000190 65 94 88 bd 3a 70 f0 3d 7e bd 17 3e 67 d3 41 be
       -0.06668929 0.117401555 0.1481838 -0.189283
0001a0 e5 16 13 bf 65 03 a8 bf 9d 5b 7d 3f c9 40 c1 3e
       -0.5745681 -1.3126036 0.98967916 0.3774474
0001b0 73 97 10 3f 25 96 d5 3e 1c 61 56 bf 72 f9 6a c0
       0.56481093 0.41716114 -0.8374193 -3.671475
0001c0 0c 37 95 3f 7e 50 d1 be 2d e1 10 3f 3d e7 8d bf
       1.1657424 -0.40881723 0.5659359 -1.1086193
0001d0 45 38 83 3f 00 7f 98 3f ae e9 b2 bf 90 b6 8d bf
       1.0251547 1.1913757 -1.3977563 -1.1071339
0001e0 a6 8b a7 bf a1 59 bd be 9b 9b 2d bf 9e ea 18 bf
       -1.3089492 -0.36982444 -0.6781556 -0.59733
0001f0 87 d3 92 bf 79 b4 9b bf 1c ed 22 3d d9 b8 30 3d
       -1.1470803 -1.2164451 0.039776906 0.043145034

out.bias f4 [10]
000000 6b 25 9f 3e ae ba 85 3f 7c c0 8e 3e dd 9e 8b be
       0.31083235 1.0447595 0.2788123 -0.2726964
000010 5d 86 46 be 6b fd 15 3e 2e 6c 1c 3d 5c 7f c6 3e
       -0.19387193 0.14647453 0.038189106 0.38769042
000020 db 4a 5d bf 85 cf 7c be
       -0.86442345 -0.24688537

out.weight f4 [10, 1152]
000000 12 ca 35 be 1b f3 b9 be 82 9b 90 be e4 c5 04 3e
       -0.17752865 -0.36318287 -0.28243643 0.12966114
000010 e8 d7 94 3e 03 dd f0 3d 7a f6 79 bf ec 36 1a 3e
       0.29070973 0.11760905 -0.9764172 0.15060014
000020 18 dc 1c bf 77 25 cb 3d 17 60 8d bc a3 6d c5 be
       -0.61273336 0.09919255 -0.017257733 -0.3856021
000030 53 fa 28 3f a4 7d da bc 09 fb 2c 3f 38 8d 24 3e
       0.66006964 -0.026671238 0.6757055 0.16069496
000040 10 b3 ff be 85 96 a4 3e 7a 18 00 3f 6a e9 92 3e
       -0.499413 0.32146087 0.5003735 0.28693706
000050 a8 e6 ee be 0b a9 39 3f 85 64 26 3e c3 2e 11 3f
       -0.46660352 0.72523564 0.16249283 0.5671198
000060 e6 49 6e 3f 9e a9 07 bf e9 43 ef 3d 6d 4a 8e 3f
       0.9308151 -0.5299319 0.11682875 1.1116463
000070 f7 d6 57 be c5 e2 96 bd 3b 40 b6 bf 5b 2a b2 bf
       -0.21078096 -0.073674716 -1.4238352 -1.3919176
000080 8a 73 2d c0 d3 e2 03 be d7 86 3e bf 77 14 6c 3f
       -2.710177 -0.12879495 -0.744245 0.92218727
000090 8e cd 09 3d f8 fb 20 bd 95 cb 1b bd c7 22 b3 3d
       0.033643298 -0.039302796 -0.038035948 0.087468676
0000a0 63 52 9e 3d f5 05 89 bc de 5b 32 3d 48 7e f5 bd
       0.07730558 -0.016726473 0.043544643 -0.11986977
0000b0 22 46 cc bd 56 63 1d 3e 65 2d 36 3e 3f c4 cc 3d
       -0.09974314 0.15369925 0.17790754 0.099983685
0000c0 97 62 11 3d 34 db d4 bd 0e 7e 4e 3d e2 0a b5 bd
       0.035494413 -0.10393372 0.050413184 -0.08839966
0000d0 6a ff 9b bd 35 99 6c be 8a e7 47 bc 94 2a d3 bd
       -0.07617076 -0.23105319 -0.012201199 -0.103108555
0000e0 65 72 a8 bd c6 5e 14 3e ec 98 1c bd 1b 55 26 be
       -0.08224944 0.14489278 -0.038231775 -0.16243403
0000f0 2d 87 a4 3c c7 2e 5a bd 7e 8d 90 bd c6 84 a0 3e
       0.020083988 -0.053267267 -0.070582375 0.31351298
000100 68 e6 3e be 0d f0 83 be 64 0b 1b bc ca 66 4a 3a
       -0.1864258 -0.25769082 -0.009463165 0.0007721005
000110 c3 ee 36 3e 8e 33 83 3d c8 ef 4b be 1d bb ae bc
       0.17864518 0.06406318 -0.19915688 -0.021329457
000120 ef b4 9d 3e 09 22 93 be 9e e3 f8 be b6 9e 8d 3e
       0.30802104 -0.28736904 -0.48611158 0.2766015
000130 55 14 7d be 90 52 8e 3b b1 e9 d2 3e cf 63 2d bf
       -0.24714787 0.0043433383 0.41193917 -0.6773042
000140 4c dd 97 3e a0 65 1b 3f 02 29 87 3c fa 32 aa bd
       0.29661024 0.6070194 0.016499046 -0.08310504
000150 5e 9c db 3e 88 03 a2 bf d5 b1 20 bf 6d f9 cc 3e
       0.42892736 -1.2657328 -0.6277135 0.40034047
000160 e4 0c 6e 3f 46 d5 3f be 17 4d 72 3f a5 1d 93 bf
       0.9298842 -0.18733701 0.9464888 -1.1493422
000170 80 42 72 bf e7 be 87 3e 51 74 8d bf f2 4c 66 be
       -0.9463272 0.26512834 -1.1051122 -0.2249029
000180 66 39 e1 3e 50 83 db be 0e 98 3b bf d6 a7 4e 3f
       0.43989104 -0.4287362 -0.7327889 0.8072485
000190 a2 6e c1 bf ab 29 1b c0 17 0c 9b 3e ea 22 52 be
       -1.5111887 -2.4244182 0.3028266 -0.20521131
0001a0 53 42 a7 3f 2e 9d 44 3f c3 d4 32 c0 54 ba 84 bf
       1.3067116 0.7680234 -2.794236 -1.0369363
0001b0 26 ee 32 bd 53 8b 4e bd ca 4b cd bd 61 e2 ed bd
       -0.043684147 -0.05042584 -0.10024221 -0.11615444
0001c0 94 13 9e bd b3 d1 df bc f6 0c 81 bc ff 38 d2 bc
       -0.07718578 -0.027321672 -0.01575325 -0.025661943
0001d0 4d 5f 94 bd 89 c0 c5 bd 0e 9c 34 bd f4 77 28 bd
       -0.0724474 -0.09655864 -0.044094138 -0.04113002
0001e0 2a af 6a 3c 92 48 a9 3c 06 73 2d 3e 45 1e 1e bd
       0.014323989 0.020664487 0.16938409 -0.038603086
0001f0 30 6c d5 3c 32 e4 03 3e ea 7c bb bd b5 00 3f 3e
       0.026052564 0.12880018 -0.09154685 0.18652613
000200 a9 e0 94 3d 8e 73 c9 be 4c b9 19 be a9 7c 38 3e
       0.07269413 -0.39345974 -0.15012091 0.18016304
000210 ce 2a 05 be 7a f3 d4 3d 93 56 23 3e fb 00 b2 bd
       -0.1300461 0.10398002 0.15950994 -0.08691593
000220 99 39 e0 3d 1e b5 b8 3d 69 00 d6 bc 13 19 d9 3d
       0.10948486 0.0901892 -0.026123242 0.10600486
000230 ca 95 d9 3c 25 70 62 3c b3 9a 90 bd bb e3 04 be
       0.026560683 0.013820683 -0.070607565 -0.12977497
000240 41 c2 a0 3c 33 2c b4 be ab eb e1 bd 4e 98 62 be
       0.019623877 -0.3518997 -0.11031278 -0.22128412
000250 25 76 67 be 80 a4 18 bf df f6 fd be 65 c4 2b 3e
       -0.22603662 -0.5962601 -0.4960241 0.16774137
000260 79 6b af 3e 64 fc 48 be 3c 3a 6a 3e 2f bf d4 3e
       0.34261683 -0.1962753 0.22873777 0.41552112
000270 0f ca 9a be b8 c5 87 3d 7d f3 43 3f fa 42 2f bf
       -0.30232283 0.06629509 0.7654341 -0.68461573
000280 dc 51 3c bf 3d fd 75 3d 02 80 0b bf d7 ef 82 3f
       -0.7356241 0.06005596 -0.544922 1.0229443
000290 6e e9 29 3f 0e 38 b9 bf b1 38 10 be db 8a 67 3e
       0.6637181 -1.4470232 -0.14084126 0.22611563
0002a0 83 19 99 3e d7 7c 21 3f e0 83 f6 be fc fb 1e 3f
       0.29902276 0.63081115 -0.48147488 0.6210325
0002b0 ce 5c 99 be 2d 84 21 3f 39 97 d0 3d 86 f1 5f 3f
       -0.29953617 0.6309231 0.101850934 0.8747791
0002c0 b1 f7 86 bf 7e a4 50 bf 3f e7 3e 3e 91 e8 0e be
       -1.054434 -0.81500995 0.18642901 -0.13955905
0002d0 4a 98 72 bd c8 b6 db bd d1 bd 2d be 87 1c 8e 3e
       -0.059227265 -0.10728222 -0.1696694 0.2775614
0002e0 f4 e9 ad 3e 05 0a 45 bd 55 ed 46 be 5f 21 9d be
       0.33967555 -0.04810526 -0.19426472 -0.30689523
0002f0 47 a6 c2 be 01 86 b5 be d2 91 d7 be 6b 3a f7 bc
       -0.38017485 -0.354538 -0.4210344 -0.030179223
000300 c1 61 61 3d ef cd 3a bd 8b 08 6f bc 13 85 21 bf
       0.055024866 -0.04560655 -0.014589439 -0.6309368
000310 3a d4 aa 3e d7 9c 00 3f 95 9b 29 be 0c 7a 5e 3e
       0.3336504 0.5023932 -0.16563256 0.21726245
000320 1c 1f 3f 3f 61 50 8d be fd 3e 22 3f 5b 04 16 3e
       0.74656844 -0.27600387 0.6337736 0.14650099
000330 a5 5c f8 3e ab 84 85 3f 1b fd 16 3f 70 6f 0f 3f
       0.48508182 1.0431112 0.5897996 0.56029415
000340 5f e7 f2 3e b9 8b 08 3f b5 53 b5 3c cd 8c 49 3f
       0.47442147 0.533382 0.022134641 0.7873047
000350 a7 c2 97 bf 57 ad 0a c0 4a f2 9f bf ef af d8 be
       -1.1856278 -2.1668298 -1.2495816 -0.42321727
000360 9e d2 f5 3a be 98 d1 3c d8 4e af 3c c8 e3 be 3c
       0.0018754785 0.025585528 0.0213999 0.023301974
000370 70 f8 9d 3c 2e 2b c8 bc 50 82 57 3c e2 bb f9 b8
       0.019283503 -0.024434652 0.0131536275 -0.00011908241
000380 07 df 1d 3c a7 ea 98 3c 03 72 ec bc 92 57 ec 3c
       0.009635693 0.018666578 -0.028862959 0.02885035
000390 98 b9 99 bc 14 52 3a 3c 2c 43 c1 bb c2 32 16 bb
       -0.018765256 0.011372108 -0.0058979 -0.0022918438
0003a0 1f 5a a5 3c 60 85 f8 bb fb dd 71 3c 57 20 52 bc
       0.020184575 -0.007584259 0.014762397 -0.012825093
0003b0 09 2b e8 bb 4b 1c b6 bc ca 80 c0 3c c0 eb a2 3a
       -0.0070852083 -0.022230288 0.023498911 0.0012429878
0003c0 17 36 11 bc ee 94 bd bc 09 89 6e 3b b2 5b a4 bc
       -0.008862994 -0.023142304 0.0036397597 -0.020063255
0003d0 42 f6 ae 3c bd 17 4c 3c bb d3 48 3c 4a 9c c1 3c
       0.02135766 0.0124568315 0.012257512 0.023634095
0003e0 c9 7e 07 bc 50 8e 24 bc ed c2 95 bc 95 1c 0c 3c
       -0.008269974 -0.010043696 -0.018281424 0.008551736
0003f0 3a cc fe b9 3e 8c b3 bb 5d 7f b0 bc f3 1c 74 3c
       -0.00048598816 -0.0054793647 -0.021545107 0.01489948
